…
          "base_uri": "https://localhost:8080/",
          "height": 1598
        },
        "outputId": "c5964d9f-5a9f-47e5-adce-8f93e8720db5"
      },
      "source": [
        "model.summary()"
      ],
      "execution_count": 76,
      "outputs": [
        {
          "output_type": "stream",
          "text": [
            "_________________________________________________________________\n",
            "Layer (type)                 Output Shape              Param #   \n",
            "=================================================================\n",
            "conv2d_112 (Conv2D)          (None, 200, 200, 64)      1792      \n",
            "_________________________________________________________________\n",
            "activation_129 (Activation)  (None, 200, 200, 64)      0         \n",
            "_________________________________________________________________\n",
            "conv2d_113 (Conv2D)          (None, 198, 198, 64)      36928     \n",
            "_________________________________________________________________\n",
            "activation_130 (Activation)  (None, 198, 198, 64)      0         \n",
            "_________________________________________________________________\n",
            "max_pooling2d_44 (MaxPooling (None, 99, 99, 64)        0         \n",
            "_________________________________________________________________\n",
            "dropout_52 (Dropout)         (None, 99, 99, 64)        0         \n",
            "_________________________________________________________________\n",
            "conv2d_114 (Conv2D)          (None, 99, 99, 128)       73856     \n",
            "_________________________________________________________________\n",
            "activation_131 (Activation)  (None, 99, 99, 128)       0         \n",
            "_________________________________________________________________\n",
            "conv2d_115 (Conv2D)          (None, 97, 97, 128)       147584    \n",
            "_________________________________________________________________\n",
            "activation_132 (Activation)  (None, 97, 97, 128)       0         \n",
            "_________________________________________________________________\n",
            "max_pooling2d_45 (MaxPooling (None, 48, 48, 128)       0         \n",
            "_________________________________________________________________\n",
            "dropout_53 (Dropout)         (None, 48, 48, 128)       0         \n",
            "_________________________________________________________________\n",
            "conv2d_116 (Conv2D)          (None, 48, 48, 256)       295168    \n",
            "_________________________________________________________________\n",
            "activation_133 (Activation)  (None, 48, 48, 256)       0         \n",
            "_________________________________________________________________\n",
            "conv2d_117 (Conv2D)          (None, 46, 46, 256)       590080    \n",
            "_________________________________________________________________\n",
            "activation_134 (Activation)  (None, 46, 46, 256)       0         \n",
            "_________________________________________________________________\n",
            "conv2d_118 (Conv2D)          (None, 44, 44, 256)       590080    \n",
            "_________________________________________________________________\n",
            "activation_135 (Activation)  (None, 44, 44, 256)       0         \n",
            "_________________________________________________________________\n",
            "max_pooling2d_46 (MaxPooling (None, 22, 22, 256)       0         \n",
            "_________________________________________________________________\n",
            "dropout_54 (Dropout)         (None, 22, 22, 256)       0         \n",
            "_________________________________________________________________\n",
            "conv2d_119 (Conv2D)          (None, 22, 22, 512)       1180160   \n",
            "_________________________________________________________________\n",
            "activation_136 (Activation)  (None, 22, 22, 512)       0         \n",
            "_________________________________________________________________\n",
            "conv2d_120 (Conv2D)          (None, 20, 20, 512)       2359808   \n",
            "_________________________________________________________________\n",
            "activation_137 (Activation)  (None, 20, 20, 512)       0         \n",
            "_________________________________________________________________\n",
            "conv2d_121 (Conv2D)          (None, 18, 18, 512)       2359808   \n",
            "_________________________________________________________________\n",
            "activation_138 (Activation)  (None, 18, 18, 512)       0         \n",
            "_________________________________________________________________\n",
            "max_pooling2d_47 (MaxPooling (None, 9, 9, 512)         0         \n",
            "_________________________________________________________________\n",
            "dropout_55 (Dropout)         (None, 9, 9, 512)         0         \n",
            "_________________________________________________________________\n",
            "conv2d_122 (Conv2D)          (None, 9, 9, 512)         2359808   \n",
            "_________________________________________________________________\n",
            "activation_139 (Activation)  (None, 9, 9, 512)         0         \n",
            "_________________________________________________________________\n",
            "conv2d_123 (Conv2D)          (None, 7, 7, 512)         2359808   \n",
            "_________________________________________________________________\n",
            "activation_140 (Activation)  (None, 7, 7, 512)         0         \n",
            "_________________________________________________________________\n",
            "conv2d_124 (Conv2D)          (None, 5, 5, 512)         2359808   \n",
            "_________________________________________________________________\n",
            "activation_141 (Activation)  (None, 5, 5, 512)         0         \n",
            "_________________________________________________________________\n",
            "max_pooling2d_48 (MaxPooling (None, 2, 2, 512)         0         \n",
            "_________________________________________________________________\n",
            "dropout_56 (Dropout)         (None, 2, 2, 512)         0         \n",
            "_________________________________________________________________\n",
            "flatten_10 (Flatten)         (None, 2048)              0         \n",
            "_________________________________________________________________\n",
            "dense_28 (Dense)             (None, 4096)              8392704   \n",
            "_________________________________________________________________\n",
            "activation_142 (Activation)  (None, 4096)              0         \n",
            "_________________________________________________________________\n",
            "dense_29 (Dense)             (None, 4096)              16781312  \n",
            "_________________________________________________________________\n",
            "activation_143 (Activation)  (None, 4096)              0         \n",
            "_________________________________________________________________\n",
            "dropout_57 (Dropout)         (None, 4096)              0         \n",
            "_________________________________________________________________\n",
            "dense_30 (Dense)             (None, 5)                 20485     \n",
            "=================================================================\n",
            "Total params: 39,909,189\n",
            "Trainable params: 39,909,189\n",
            "Non-trainable params: 0\n",
            "_________________________________________________________________\n"
          ],
          "name": "stdout"
        }
      ]
    },
    {
      "cell_type": "code",
…
